                 from  n    params  module                                  arguments
  0                -1  1      3520  models.common.Conv_3D                   [3, 32, 6, 2, 1, 1, 0, 2]
  1                -1  1     55424  models.common.Conv_3D                   [32, 64, 3, 2, 3, 1, 1, 1]
  2                -1  1     37248  models.common.C3_3D                     [64, 64, 1, 3, 1]
  3                -1  1    221440  models.common.Conv_3D                   [64, 128, 3, 2, 3, 1, 1, 1]
  4                -1  2    263168  models.common.C3_3D                     [128, 128, 2, 3, 1]
  5                -1  1         0  models.common.TemporalAvgPool3d         []
  6                -2  1    885248  models.common.Conv_3D                   [128, 256, 3, 2, 3, 1, 1, 1]
  7                -1  3   1509888  models.common.C3_3D                     [256, 256, 3, 3, 1]
  8                -1  1         0  models.common.TemporalAvgPool3d         []
  9                -1  1   1180672  models.common.Conv                      [256, 512, 3, 2]
 10                -1  1   1182720  models.common.C3                        [512, 512, 1]
 11                -1  1    656896  models.common.SPPF                      [512, 512, 5]
 12                -1  1    131584  models.common.Conv                      [512, 256, 1, 1]
 13                -1  1         0  torch.nn.modules.upsampling.Upsample    [None, 2, 'nearest']
 14           [-1, 8]  1         0  models.common.Concat                    [1]
 15                -1  1    361984  models.common.C3                        [512, 256, 1, False]
 16                -1  1     33024  models.common.Conv                      [256, 128, 1, 1]
 17                -1  1         0  torch.nn.modules.upsampling.Upsample    [None, 2, 'nearest']
 18           [-1, 5]  1         0  models.common.Concat                    [1]
 19                -1  1     90880  models.common.C3                        [256, 128, 1, False]
 20                -1  1    147712  models.common.Conv                      [128, 128, 3, 2]
 21          [-1, 16]  1         0  models.common.Concat                    [1]
 22                -1  1    296448  models.common.C3                        [256, 256, 1, False]
 23                -1  1    590336  models.common.Conv                      [256, 256, 3, 2]
 24          [-1, 12]  1         0  models.common.Concat                    [1]
 25                -1  1   1182720  models.common.C3                        [512, 512, 1, False]
 26      [19, 22, 25]  1     53940  models.yolo.Detect                      [15, [[10, 13, 16, 30, 33, 23], [30, 61, 62, 45, 59, 119], [116, 90, 156, 198, 373, 326]], [128, 256, 512]]
YOLOv5s_3D_C3_F summary: 217 layers, 8884852 parameters, 8884852 gradients, 66.2 GFLOPs

Transferred 75/349 items from ..\weights\yolov5s.pt
AMP: checks failed , disabling Automatic Mixed Precision. See https://github.com/ultralytics/yolov5/issues/7908
…
