                 from  n    params  module                                  arguments
  0                -1  1      3520  models.common.Conv_3D                   [3, 32, 6, 2, 1, 1, 0, 2]
  1                -1  1         0  models.common.TemporalAvgPool3d         []
  2                -1  1     18560  models.common.Conv                      [32, 64, 3, 2]
  3                -1  1     18816  models.common.C3                        [64, 64, 1]
  4                -1  1     73984  models.common.Conv                      [64, 128, 3, 2]
  5                -1  2    115712  models.common.C3                        [128, 128, 2]
  6                -1  1    295424  models.common.Conv                      [128, 256, 3, 2]
  7                -1  3    625152  models.common.C3                        [256, 256, 3]
  8                -1  1   1180672  models.common.Conv                      [256, 512, 3, 2]
  9                -1  1   1182720  models.common.C3                        [512, 512, 1]
 10                -1  1    656896  models.common.SPPF                      [512, 512, 5]
 11                -1  1    131584  models.common.Conv                      [512, 256, 1, 1]
 12                -1  1         0  torch.nn.modules.upsampling.Upsample    [None, 2, 'nearest']
 13           [-1, 7]  1         0  models.common.Concat                    [1]
 14                -1  1    361984  models.common.C3                        [512, 256, 1, False]
 15                -1  1     33024  models.common.Conv                      [256, 128, 1, 1]
 16                -1  1         0  torch.nn.modules.upsampling.Upsample    [None, 2, 'nearest']
 17           [-1, 5]  1         0  models.common.Concat                    [1]
 18                -1  1     90880  models.common.C3                        [256, 128, 1, False]
 19                -1  1    147712  models.common.Conv                      [128, 128, 3, 2]
 20          [-1, 15]  1         0  models.common.Concat                    [1]
 21                -1  1    296448  models.common.C3                        [256, 256, 1, False]
 22                -1  1    590336  models.common.Conv                      [256, 256, 3, 2]
 23          [-1, 11]  1         0  models.common.Concat                    [1]
 24                -1  1   1182720  models.common.C3                        [512, 512, 1, False]
 25      [18, 21, 24]  1     53940  models.yolo.Detect                      [15, [[10, 13, 16, 30, 33, 23], [30, 61, 62, 45, 59, 119], [116, 90, 156, 198, 373, 326]], [128, 256, 512]]
YOLOv5s_3D_C0b summary: 216 layers, 7060084 parameters, 7060084 gradients, 17.5 GFLOPs

Transferred 12/349 items from ..\weights\yolov5s.pt
AMP: checks failed , disabling Automatic Mixed Precision. See https://github.com/ultralytics/yolov5/issues/7908
…
